run/cartpole1.pt (torch, 9248 bytes, 4 tensors)

fc1.weight f4 [256, 4]
00000000: fce6 16bf a813 f0be b63f 613d 4e0e e4be
00000010: d582 8b3e 0306 953e 5320 053e e6f1 9c3e
00000020: bc03 8b3e b201 78bc ee39 a03e 31a3 e43d
00000030: 638b ebbd cdfd c0be e61d 35bf 1683 38bf
00000040: 8412 11bf b1d2 24bf aba1 1d3d 5a49 c2be
00000050: a310 e6be 21c9 28bf f360 cbbe 4194 e0be
00000060: ce5f c2be 7c23 dfbe 791f 083d 3c6a c8be
00000070: ce71 473e 9ba8 5b3e 09ee 10bd b078 a73e
00000080: ae30 dfbe f258 3dbf 7f78 bbbd d5b5 56be
00000090: 169e 9bbe 5f28 d43e 99e0 223f 3fbd a73e
000000a0: 8528 913e 9b03 0dbf 12ca b4bf 8b2d 81bf
000000b0: 8b71 00bf f5fa bebe d928 d73e 4b50 923e
000000c0: 16aa 48bd 2532 c43e c09b 323f a32e 9d3c
000000d0: e534 6cbe 779c fbbd 76ea ee3d 8f73 153d
000000e0: da4b 23be a4fd 0abf 53e5 9f3d da2f 443e
000000f0: c334 aabd 9acc 013f 8938 39ba ab29 903e
00000100: 024c 943c 4bea e13e 44c7 7a3e 1a4e 853d
00000110: 8322 f2be ad5b 1bbf 2f39 eebe ea5a 89be
00000120: b4be c7bd 5b13 ec3e a818 3b37 956f b63d
00000130: 59bb 98bc 5c45 ec3e 2fdf 84bc 54a6 de3e
00000140: b549 63bd 2111 093d 1c08 493f 3357 4c3e
00000150: 6d8a 32bf 7fd9 b3be 4da7 4c3e 905a 23be
00000160: d43a 12be 17f5 b3bc d623 803e 906f 7a3e
00000170: dd3a 72be 9dd7 ffbe 1962 10be 25d6 9fbe
00000180: 7d93 94bd 3580 0b3f adb3 553f 960f e9bd
00000190: c935 5fbc b54f bf3e 9729 253e 7f8e a3bd
000001a0: c4e4 aa3e 0446 f73c 2260 023e d98d fa3c
000001b0: 2ef5 0c3e 6248 e0bd afe4 29bf 8c11 0dbf
000001c0: aaac 80be 1ddf 383f d7a1 b23e ce96 473e
000001d0: 9e13 30be c5c5 313f 90dc e33d 9a41 473e
000001e0: 15c4 8e3e d9c8 5f3e 7905 e23d c192 9e3e
000001f0: f91e e3be b730 b7be 70dc 5ebe d5a6 89be
00000200: 8ce6 f0be e8ca 013f ef66 713f 7aea a3bd
00000210: 1025 a5be d660 323f 068c 5d3f 7891 f13e
00000220: be79 69be fb55 3abe 5df1 99bf 4441 1cbf
00000230: 56fc 8f3e bf5a 9bbc bca0 7b3d 0269 5d3e
00000240: 7b36 e3be 85ed 233f eca6 4b3f edde 27bc
00000250: 9c62 813e 71f2 453e 1b49 cc3e 9470 823e
00000260: ded2 e8be 63e9 1abf 1b15 94be 7124 253d
00000270: 8f06 403e 7c79 163e 4043 c73e 3172 4f3c
00000280: 2bdd c33e ee18 443d 0bc2 5a3f 2e15 113f
00000290: 1858 c53e a2fa d0bd ba7c 7b3c 425a 6abe
000002a0: 077f c7be 294d 493f 49ea 9f3e b479 733e
000002b0: 62c2 91be a460 34bf 1de1 44bf dfb6 7fbf
000002c0: 8dad 25bd 8d08 ae3e 9447 463e d903 e73e
000002d0: 0cdc 13bf 7460 08bf 3807 88be f87c 843d
000002e0: d3b5 6c3e a58e 0fbf 5f4a 03bf f8d0 a93c
000002f0: 787a 2e3e 34d1 b43e 73c5 de3e 806d a63e
00000300: e062 b63e 05e6 dabd 36fb ea3e 4ead 583d
00000310: 87d2 763f f56f 933e 998f 9bbf 0d31 41bf
00000320: 4b78 1bbe 7826 49bf 1128 62bf 94fc 81bf
00000330: 141d 443e 1c34 b93e 1216 48be 7225 243e
00000340: f88a 14bf a604 e6be 600d 08bf 18b6 bebd
00000350: 79e1 213d d0e9 683e f984 5b3f da16 db3c
00000360: 016e 6e3e 8b40 c23d 4867 ad3d cf13 3c3f
00000370: 8541 3abe b664 4d3e 4e13 0b3e bc30 e9bc
00000380: 2672 60bd d4f2 733e 9112 f73e ec7a cd3d
00000390: 318b 14be 6a16 983e c232 66bd dbfa 233f
000003a0: 539f 9fbe a9f5 07bf 6b55 2fbf 7010 89be
000003b0: 06d4 163e e2c5 203e 21d9 713f 5efc 0ebc
000003c0: d424 1b3f 91d3 99bd 3fc1 d43e 759e 1a3f
000003d0: 1f13 9fbe ee38 a93d 797c 9d3c ab38 5bbd
000003e0: 3fd9 643e ec93 9a3e 94d5 3fbe 687f b93e
000003f0: 2aad 21be bc84 1a3f 9985 063f 884f eb3e
-0.58946204 -0.46889997 0.0549924 -0.44542164 0.27248254 0.2910615 0.13000612 0.30653304
0.27151287 -0.015137123 0.31294197 0.11163939 -0.11501195 -0.37693635 -0.70748746 -0.7207502
-0.5666888 -0.6438399 0.038484257 -0.37946588 -0.44934568 -0.659319 -0.39722404 -0.4386311
-0.37963718 -0.4358176 0.03323314 -0.3914355 0.19477007 0.21451037 -0.035383258 0.32709265
-0.43591827 -0.73963845 -0.09153842 -0.20967801 -0.30394047 0.4143705 0.6362396 0.3276157
0.28351226 -0.55083627 -1.4124167 -1.0092024 -0.5017325 -0.3730084 0.42023352 0.28576884
-0.04899033 0.38319507 0.69768906 0.019187277 -0.23067053 -0.12285703 0.116658136 0.03648716
-0.15946904 -0.54293275 0.07807412 0.19158879 -0.08310845 0.5070282 -0.00070656143 0.2815679
0.01810265 0.44124064 0.24490076 0.06509037 -0.47291955 -0.6068676 -0.46528003 -0.26827174
-0.097531706 0.46108517 1.1151809e-05 0.08908001 -0.018644022 0.46146667 -0.016219703 0.43486273
-0.055490214 0.0334636 0.78528 0.19955139 -0.6974247 -0.35126874 0.19985695 -0.15952516
-0.14280254 -0.021967454 0.2502734 0.2445662 -0.23655267 -0.49969187 -0.14099921 -0.31218067
-0.07254694 0.54492503 0.8347729 -0.11379926 -0.013623663 0.373655 0.16129147 -0.07986163
0.3337766 0.030184753 0.12731984 0.030585216 0.13765404 -0.10951306 -0.6636457 -0.551049
-0.25131732 0.72215444 0.348891 0.19491121 -0.17194983 0.694424 0.11126053 0.19458619
0.27883974 0.21853961 0.110362 0.3097134 -0.44359568 -0.35779354 -0.21763778 -0.26885095
-0.47050893 0.50700235 0.9429769 -0.08003707 -0.3225484 0.6967901 0.86541784 0.47181296
-0.22800347 -0.18196861 -1.2026783 -0.6103709 0.28122205 -0.01896417 0.061432585 0.21622089
-0.44377503 0.640343 0.7955158 -0.010246021 0.25270545 0.19330765 0.39899525 0.25476515
-0.4547338 -0.6051237 -0.28922352 0.040317956 0.18752502 0.1469478 0.38918495 0.012661503
0.38254675 0.047875337 0.85452336 0.5667294 0.38543773 -0.102040544 0.015349561 -0.22885993
-0.38964102 0.7863336 0.31233433 0.23776895 -0.28468615 -0.7045996 -0.76905996 -0.99888414
-0.040448714 0.339909 0.19363242 0.45120123 -0.5775764 -0.53272176 -0.26568007 0.064691484
0.23116235 -0.56077033 -0.51285356 0.020729527 0.17038906 0.3531586 0.43510017 0.32505417
0.3562231 -0.10688404 0.45894784 0.05289965 0.9641499 0.28796354 -1.2153198 -0.7546547
-0.15182607 -0.78574324 -0.88342386 -1.0155206 0.19151717 0.3617257 -0.19539669 0.16029909
-0.5802455 -0.4492542 -0.5314541 -0.093120754 0.039521668 0.22745442 0.85749775 0.026744295
0.2328415 0.09484967 0.08466965 0.73467726 -0.18189056 0.2005795 0.13581583 -0.028465621
-0.05479636 0.238231 0.48256353 0.10033211 -0.14506222 0.297046 -0.05620075 0.6405465
-0.31176242 -0.5310922 -0.6848971 -0.26770353 0.14729318 0.15700486 0.9447194 -0.008727161
0.6060307 -0.07511056 0.41553685 0.60398036 -0.31069276 0.082628116 0.019224392 -0.05352084
0.22348498 0.3019098 -0.18733817 0.36230016 -0.15788713 0.60358787 0.52547604 0.45959115

fc1.bias f4 [256]
00000000: ae57 d1be af35 a63f a9d3 843f 3391 6dbe
00000010: 6198 c2be 7e42 cdbe ec4b a1be f112 913f
00000020: 757d 09bf 12bf 913f 1c7d 8b3d 3727 a5be
00000030: 0c60 5d3f 1289 b9bd 8666 babe abdf 6b3f
00000040: 5a33 893f 24da fabe 51cd 4d3f 7381 863f
00000050: 7028 523f b818 b8be e18e 4f3f 4c12 b7bd
00000060: fc2b 993f c4b5 3d3f d504 793f 81d7 f43e
00000070: ff24 903f 856f 963f bccc 953f 37e8 9dbe
00000080: 9ef2 853f 1267 913f 9a9a b33a 284e 563f
00000090: a1d8 743f e238 8c3f ef63 eabe 67d4 583f
000000a0: 41d5 25be 62df 813f e7ab 863f 1e16 b9be
000000b0: 7563 5c3f 345a ecbe ed82 b13e 0bc5 9f3f
000000c0: a40b 693f 2386 aa3d ad57 85be 9af7 993f
000000d0: 37af cbbe 20be 3d3f 616e 5bbe f770 3e3f
000000e0: 26c3 373f f536 aebd 8efb c0be 26bd 823f
000000f0: e88e 25be f915 453f bd3f 973f 3f40 923f
00000100: 3507 4abe 7889 443f 096f 0bbe f0ce 5a3f
00000110: 950d 7a3f ab33 90bd c25e 04be 07fc 3f3f
00000120: 0bdc 9abe 1e42 843f 3c0a 823f 7feb 7f3f
00000130: f9f5 503f 4bf2 0fbe 9ce4 313e e2fa 913f
00000140: 7122 8d3f 8bf1 643f dd01 81be 884a a6be
00000150: 5158 5abe 07c5 8b3f 8ef2 8cbe f245 043b
00000160: d7aa 463f 1182 593f 20f4 3d3f 194f 0fbe
00000170: 68a6 753f 4ad0 47be 923b 623f 6a70 92be
00000180: 4025 823f e54e eabe ce36 7f3f 8c37 c2be
00000190: 5041 9b3f 60ca 393f b699 a1be 833f 4b3f
000001a0: 099a 4ebd f352 d3be 3d85 f5be 45bd 953f
000001b0: d108 5e3f 86a3 813f c119 c1be d237 a6be
000001c0: 8806 983f 6539 1ebe 5c6b 8f3f a0b9 e7bd
000001d0: 556d 583f cc71 dfbd 593a 743f cb49 983f
000001e0: 91d7 49be e03d 8f3f be23 7f3f fd90 813f
000001f0: 1105 903f 8f1d 463f 48f3 663f 83d2 85be
00000200: 2dec 993f 858f 6b3f 2cad 6c3f abfc 5a3f
00000210: dfbe 4a3f 6eab 8c3f 6477 8b3f 5676 c2be
00000220: ed83 8e3e ef00 763f 7db2 4e3f 832e 753f
00000230: 4db4 d0bd 6b83 32be 867a 8bbe 5cd1 76be
00000240: 558f 833f 9de7 86bd b83c cabe 7ab9 593f
00000250: e0e0 653f 8da1 6e3f 1f13 89be 4ce3 06bf
00000260: fdbb 8b3f 087f 403f 1df7 893f 466b 08bf
00000270: b768 893f 9c21 933f 1066 9fbd ea6f 853f
00000280: 3317 813f 06f2 4d3f b9ed ebbe 1ed6 973f
00000290: 0650 873f e5bd 5f3f 21b7 993f 2119 663f
000002a0: 1a92 9a3f cba9 813f 784a 6a3f 2e23 8c3f
000002b0: 1d4e 80be 4f7c 5fbe ce93 8b3f 8c7e fe3c
000002c0: b0e9 413f a492 213f 2d44 843f 5470 e4be
000002d0: bf4b 733f 84d0 933f 4208 903f 6b9a 873f
000002e0: 06dd a03f 57f2 d1be 87f5 913f 9252 3b3f
000002f0: d635 553f d67b 943f cb43 a13f d039 883f
00000300: 95de 553f aefa c6be 7af3 04be dc71 6dbe
00000310: 6c3b 9e3f b608 a8be 5dff 36bd 154a 863f
00000320: d8a0 653f 4aa8 82be e607 3b3f 2a26 893f
00000330: 3279 4d3f eb8a d0be 7e00 2a3f ba56 1b3f
00000340: 3c6d 483f b4c4 393f 67ea 973f bff5 b8be
00000350: d6b6 493f dc67 0abe 5ef1 81be dbea 71bc
00000360: ddf3 653f 7753 8b3f 409c 823f 4d42 733f
00000370: 8870 213f eb79 02bf 6512 9a3f 16dd 88be
00000380: 373b 0a3d d36d b9be b1b5 6c3f 3d37 463f
00000390: 4a59 973f c258 67bd ac47 493f f61e 0fbe
000003a0: e00d 823f 9c8e 16be 78c6 8e3f 8afa 74be
000003b0: f0d6 293f ecab 953f e50a d33e 7718 323f
000003c0: e7cc bfbe 28aa a2be fa86 8b3f 8eb8 8c3f
000003d0: 0cab 943f 9825 913f e946 953f 75ad 733f
000003e0: 9e13 6a3f 5d58 47be 854c 94be e55c 883f
000003f0: 473a 08bf ee17 383f 14ac 20bf dd51 573f
-0.40887207 1.2985133 1.0377094 -0.2319992 -0.3800688 -0.40089792 -0.31503236 1.1333905
-0.5370706 1.1386435 0.06810972 -0.3225648 0.8647468 -0.09059347 -0.36406344 0.92138165
1.0718796 -0.48994553 0.8039141 1.0508255 0.8209295 -0.3595636 0.8107739 -0.08939037
1.1966548 0.7410548 0.97273 0.47820666 1.126129 1.1752783 1.1703105 -0.30841228
1.0464666 1.135958 0.0013702691 0.83713007 0.9564305 1.0954859 -0.45779368 0.846991
-0.16194631 1.0146296 1.052121 -0.36149687 0.8608926 -0.4616257 0.346702 1.2482008
0.9103339 0.08326366 -0.26043454 1.2028687 -0.39782116 0.7411823 -0.21428825 0.7439112
0.7178215 -0.08506576 -0.3769192 1.0213974 -0.16167796 0.7698665 1.1816326 1.1425856
-0.19729312 0.7677226 -0.13616575 0.8547201 0.97676975 -0.07041105 -0.12926772 0.7499394
-0.30246004 1.0332677 1.0159373 0.99968714 0.81625324 -0.14057271 0.17372364 1.1404688
1.1026136 0.89431065 -0.25196734 -0.32478738 -0.21322753 1.0919503 -0.27528805 0.0020183292
0.7760443 0.8496409 0.7420063 -0.13995017 0.9595704 -0.1951305 0.8837215 -0.2860139
1.0167618 -0.45763317 0.99693 -0.37933004 1.2129307 0.72574425 -0.31562585 0.79393786
-0.050439868 -0.41274223 -0.47953215 1.1698385 0.867322 1.0128028 -0.3771496 -0.32464463
1.1876993 -0.15451582 1.1204638 -0.11314702 0.8454183 -0.10910377 0.9540153 1.189752
-0.19711138 1.1190758 0.99663913 1.0122372 1.1251546 0.7738885 0.9021497 -0.2613717
1.20252 0.9201587 0.9245174 0.8554179 0.79197496 1.0989816 1.089581 -0.37980908
0.27835026 0.96095175 0.807411 0.95774096 -0.1019064 -0.17432944 -0.27241915 -0.24103302
1.0278116 -0.065871455 -0.3949945 0.8504864 0.89796257 0.93215257 -0.267724 -0.5269058
1.0916744 0.75193834 1.0778538 -0.53288686 1.0735081 1.1494632 -0.07783139 1.0424778
1.0085205 0.80447423 -0.46079805 1.1862218 1.0571296 0.8739913 1.2009012 0.89882094
1.2075837 1.0129942 0.9151988 1.0948236 -0.25059596 -0.21824764 1.0904481 0.031066202
0.75747204 0.6311438 1.0333306 -0.4461695 0.95037454 1.1548009 1.125252 1.0594
1.2567451 -0.41005203 1.1403054 0.7317287 0.8328527 1.1600292 1.2598814 1.0642643
0.8354276 -0.38863128 -0.12983504 -0.23187965 1.2361884 -0.32819146 -0.044677127 1.0491358
0.89698553 -0.2551902 0.7305893 1.0714772 0.80263054 -0.40730986 0.66407 0.6067921
0.7829168 0.7256577 1.1868409 -0.3612499 0.7879461 -0.13516182 -0.2537946 -0.014765467
0.8982523 1.0884846 1.0203934 0.9502304 0.63062334 -0.5096728 1.2036864 -0.26731175
0.033747878 -0.36216602 0.9246474 0.77428037 1.1824124 -0.05648113 0.7862499 -0.13976654
1.0160484 -0.14702839 1.1154318 -0.23923698 0.66343594 1.1693091 0.4121925 0.6956858
-0.37461016 -0.31770444 1.0900567 1.0993822 1.1614699 1.1339598 1.1662265 0.9518655
0.91436183 -0.19467302 -0.2896463 1.0653349 -0.53213924 0.71911514 -0.6276257 0.8410929

fc2.weight f4 [2, 256]
00000000: a55d 68be eab3 203f b1b2 1f3f b647 40bf
00000010: 205b dabd 83de 06be 4b09 02be 31c0 183f
00000020: e997 d9be 937d 353f d4c5 c63e 61e1 6abe
00000030: b98d 203f 9a3b 94bd 8667 7fbe d070 0b3f
00000040: 4140 0d3f f415 f7be 210f 053f 2b82 323f
00000050: ee35 033f 0ed1 e6be df0e c33e 19fe 513b
00000060: bde8 073f 80f1 a93e af3d f83e 90e6 123f
00000070: 8aa0 053f 67d7 0a3f feaf 233f bff0 acbe
00000080: a550 a63e 1211 453f cdfb 24be 0d00 1b3f
00000090: 70d1 d23e 7454 533f ab46 aebe 260a 103f
000000a0: 771f a1be 03f9 f93e 763c 143f 272a 0cbf
000000b0: 0ae2 1a3f 46c1 b0be e236 653f 63f6 273f
000000c0: e2d1 073f c332 afbe c4ec 17bf c8ab 163f
000000d0: 8a43 a8be b9a7 3a3f 768d 03be f673 883e
000000e0: c37d 293f 2597 8bbe 127d 2bbe f04e 023f
000000f0: 0fba 3bbe 5c98 df3d 0cab 383f 33cd 403f
00000100: 4792 94be 4fd5 343f 8804 b6be 1758 ef3e
00000110: 23da 5f3f c52e 90be a73b fabe fd51 cf3e
00000120: 1187 c4be d3d4 383f 3041 6e3f a2f5 cd3e
00000130: 22b9 fb3e 65ff 8bbe dc00 523f f564 503f
00000140: a9ca fa3e 5e8d 453f f9b6 4fbe 8271 0dbf
00000150: 4773 713d 66ad f93e 5dce 17bf 271c 83be
00000160: 63d3 023f 87ff 423f 4dba 383f 6898 f9be
00000170: 288a 143f 790d f13c 5561 953e 02de 68be
00000180: e025 243f a00a bdbe d677 313f 3b66 a2be
00000190: 004d 083f df99 f03e cd52 f4be 8687 eb3e
000001a0: 5bef 76be 03f0 e1be 3435 bebe de84 d13e
000001b0: 2385 ad3e 09df 2d3f 04e4 793d 4805 d8be
000001c0: d00b 0d3f 6070 8dbe b454 f93e 3150 86be
000001d0: 47d4 db3e 107d 9abe 789e 833f d081 013f
000001e0: 8ea2 a6be 5ef3 c53e 2dbf 3b3f b665 2c3f
000001f0: 224b ea3e 14bb cb3e 949c 113f 7add a1be
00000200: 9d58 3d3f a8f4 0e3f ca17 4d3f 5263 413f
00000210: 3161 003f 0e32 193f 05a8 4b3f 442f a8be
00000220: 9936 0c3d c15e 543f a095 c73e 50ec 073f
00000230: 545a e7be 7713 bcbe 3475 14be f519 18bf
00000240: 00ce 1f3f c2b4 8abe a249 8abe 5fb2 723f
00000250: 2d17 503f 86fa 8a3e bcb9 fbbe 284d b6be
00000260: c5a7 243f a2a3 153f 31e3 593f bc48 e6be
00000270: dac7 2f3f 4dab 0b3f 69ee b4be 7e16 123f
00000280: 4ee4 573f 40db fc3e 38ab f6be c13c 0d3f
00000290: a27a b83e 37dc 063f ce4f 0d3f d7bc 3a3f
000002a0: 51a6 2b3f 3989 0f3f 5d48 053f 1bd6 633f
000002b0: 823b efbe ba18 3bbf 8b65 bf3e c7c5 4dbe
000002c0: 6b6a 1e3f 8c93 7e3e 996c 243f 70a5 3fbc
000002d0: 7695 203f 1c98 0a3f ff03 373f eb03 143f
000002e0: d436 2a3f 5120 0abe 618d 3d3f 0499 1d3f
000002f0: 8348 203f dedb cc3e cf77 3a3f f277 063f
00000300: ebac 4c3f 5373 48be 69d7 93be 14b6 c2be
00000310: 9f4c 2a3f 34c5 8bbb 3c55 8ebe a005 473f
00000320: af19 cb3e 0a14 b1be 239d fe3e de52 ee3e
00000330: 07d3 0e3f c271 d63c 91fa 143f 755f 0c3f
00000340: 65c4 f93e 9c26 b43e 8385 443f 9c26 9bbe
00000350: 4177 763f 936a 90be 549a 01be 70be 65be
00000360: 6d40 103f 871c c63e 0a4f 0c3f 3f21 483f
00000370: e898 f43e 88bf 83be d84d 413f e739 77be
00000380: 051f 6cbe 9f34 a4be 0f9e 3c3f 5e81 d83e
00000390: 128d fc3e 4932 e8be c818 1c3f 1e4b acbe
000003a0: 5c4c 3d3f 60a8 46be 8072 3e3f 274c fdbe
000003b0: 9e16 0f3f f7d1 303f f004 153e b56b b53e
000003c0: 374b b0bd 3df6 493d 07b0 133f ca06 1a3f
000003d0: 8a9c 203f d03b b63e f4d6 443f b5c1 fc3e
000003e0: 4c9e 493e 0cc0 3ebf 2f33 9fbe 8a10 2a3f
000003f0: e086 34be 9dd0 843e ae0b b2be 4370 e13e
-0.22691973 0.6277453 0.62382036 -0.7510942 -0.10661912 -0.13170819 -0.12698857 0.5966826
-0.4249871 0.70894736 0.38822806 -0.22937538 0.6271625 -0.072379306 -0.24941835 0.54469013
0.5517617 -0.48258936 0.5197621 0.6972987 0.51254165 -0.4508137 0.38097283 0.0032042323
0.53089505 0.33192062 0.4848456 0.5738306 0.5219809 0.5423493 0.6394042 -0.33777425
0.32483402 0.7697917 -0.1611168 0.6054695 0.41175413 0.8255074 -0.3403829 0.56265485
-0.31469318 0.48822793 0.57904756 -0.5475182 0.6050116 -0.34522456 0.8953687 0.6561033
0.5305463 -0.34218416 -0.5934565 0.5885587 -0.32864028 0.72912174 -0.12846932 0.2665097
0.6620752 -0.27263752 -0.1674693 0.509017 -0.18332694 0.10917732 0.72135997 0.7531311
-0.2901785 0.70637983 -0.35550332 0.46746895 0.87442225 -0.28160682 -0.48873636 0.4049224
-0.38384297 0.72199744 0.9306822 0.40226465 0.49164683 -0.27343288 0.8203256 0.8140405
0.48982742 0.77168834 -0.20284642 -0.55251324 0.058947828 0.48765105 -0.5929926 -0.25607416
0.511038 0.76171154 0.7215927 -0.4874909 0.5802331 0.02942537 0.2917582 -0.2274094
0.6412029 -0.3692217 0.6932348 -0.3171862 0.5324249 0.46992394 -0.47719422 0.46001834
-0.24114744 -0.44128427 -0.37149966 0.40921682 0.33890638 0.6791845 0.06100847 -0.4219153
0.5509615 -0.27624798 0.48697436 -0.26233056 0.42935392 -0.3017354 1.0282736 0.50588703
-0.32545894 0.38662237 0.73338586 0.673427 0.45760447 0.39791167 0.56879544 -0.31614286
0.7396334 0.55842066 0.80114424 0.75542176 0.501483 0.59842 0.7955325 -0.3284856
0.034231756 0.82957083 0.38981342 0.5309496 -0.45186102 -0.367336 -0.14497834 -0.5941461
0.62423706 -0.27091032 -0.27009302 0.9480342 0.81285363 0.2714426 -0.49165142 -0.3560574
0.64318496 0.5845281 0.8511229 -0.44977367 0.68664324 0.5455826 -0.35338143 0.5706557
0.8433274 0.49386024 -0.48177505 0.5517083 0.3603106 0.5267977 0.551999 0.72944397
0.67050654 0.5606876 0.5206354 0.88998574 -0.46725088 -0.73084605 0.3738216 -0.20094977
0.6188113 0.24860972 0.64228207 -0.011697158 0.6272806 0.5413835 0.7149047 0.5781848
0.6648991 -0.1348889 0.7404385 0.6156161 0.62610644 0.40011495 0.72839063 0.5252677
0.7995135 -0.19575243 -0.28875282 -0.3802954 0.66523165 -0.004265452 -0.27799404 0.7774296
0.39668033 -0.345856 0.4972926 0.46547598 0.5579075 0.02617729 0.58194834 0.54833156
0.4878265 0.35185707 0.7676622 -0.30302894 0.9627572 -0.2820631 -0.12656528 -0.22435927
0.56348306 0.3869364 0.54808104 0.7817573 0.47772908 -0.25732064 0.75509405 -0.24143182
-0.23058708 -0.32071397 0.7367868 0.422862 0.49326378 -0.45350865 0.60975313 -0.3365106
0.7394464 -0.19400167 0.74393463 -0.49472162 0.55893886 0.6907038 0.14552665 0.35433736
-0.08608096 0.049307097 0.5769047 0.6016661 0.6273886 0.35592508 0.7689049 0.49366537
0.19689292 -0.7451179 -0.31093737 0.66431487 -0.17629576 0.2594041 -0.34774536 0.4403096

fc2.bias f4 [2]
00000000: 4bd8 063f da96 dc3e
0.52673787 0.4308384
