run/flappybird1.pt (torch, 189488 bytes, 4 tensors)

fc1.weight f4 [256, 180]
000000 46 ab 4a bb 2e b5 a8 bd f1 b8 f4 bc c0 c9 62 bd
       -0.003092484 -0.08237682 -0.029873343 -0.055368185
000010 0f a9 41 bd 3b e2 ae bd b5 6b 8c 3b b0 bd 0e 3d
       -0.047280367 -0.08539244 0.0042853006 0.03484887
000020 84 7a 6c bd 4f 00 bf bd de a3 b9 bb 4b f0 23 3c
       -0.057734028 -0.09326231 -0.0056652864 0.010006021
000030 e3 25 53 bd 77 95 d7 bc 91 65 d1 bd 2e 25 19 bd
       -0.051549803 -0.026316388 -0.102244504 -0.037388973
000040 73 52 bd 3c ec 7f 5c 3c d8 a6 c1 bd 84 64 33 bd
       0.023110604 0.013458233 -0.09455651 -0.04379703
000050 4a 67 8d bd fb 29 26 bc 7b af d6 bd 55 22 8b bb
       -0.069044665 -0.010141845 -0.10482689 -0.004246036
000060 6b 71 ca bd 8b dc 5e bd a7 dd 00 bd 5b cd 20 3d
       -0.09884914 -0.054409545 -0.031461384 0.039258342
000070 35 11 2f bd cf 61 7f bd 1a 21 b9 bd f2 3e 1d bd
       -0.04274102 -0.062349137 -0.09039517 -0.038390107
000080 b8 ba 23 bd 8d 96 20 3c 4c 62 b1 bd b5 ea ee bb
       -0.03997299 0.009801519 -0.08661327 -0.007291163
000090 83 fc 27 ba cd 24 5d bd 64 eb 08 3c d1 db ce 3c
       -0.00064081716 -0.053990174 0.008356903 0.025251301
0000a0 17 e8 54 bd da e9 87 3c 55 3d dd bc 01 66 63 3d
       -0.05197915 0.016591001 -0.027006784 0.0555172
0000b0 d5 f8 be 3d ce 2f ba bc f6 4e 3b 3d 6d 5b 34 bd
       0.09324805 -0.022727873 0.0457296 -0.044032503
0000c0 65 9a b3 3c 0a 58 2f 3d ae e5 bf 3d 7b d2 de 3d
       0.021924207 0.04280857 0.0936998 0.1087999
0000d0 2a 3a f2 3c 3e ba a7 3c 4f 7b c9 bb 1f 56 cc 3d
       0.02956875 0.02047455 -0.0061487327 0.09977364
0000e0 bf 9f df 3d 26 02 de 3d 0f aa 64 3a 94 e1 21 3d
       0.10919141 0.108402535 0.00087228505 0.03952177
0000f0 1f 1e d9 3d f2 8c c1 3d cb 45 b8 3d 95 47 41 3d
       0.10601448 0.09450711 0.08997687 0.047187407
000100 2c d7 f7 3d 86 25 c9 3d 7d af 01 3c 95 3f d2 3b
       0.12101588 0.0982161 0.007915375 0.006416271
000110 cf 35 6e 3d 83 66 23 3b 62 a9 cf 3d c1 9d ea 3d
       0.058156785 0.0024932928 0.10139729 0.114558704
000120 b3 08 13 bc 53 c1 a7 3d c0 3d ae 3d 5d 12 f4 3c
       -0.008974242 0.081911705 0.08507872 0.029793913
000130 db 4c ab bc a5 d4 9a 3c ec 6d d5 3c d6 8e 87 3d
       -0.020910671 0.018900225 0.026053391 0.06619041
000140 6c 2b 00 3d 5b be de 3d a8 39 94 3c 97 c0 91 3d
       0.03129141 0.10876151 0.018093899 0.07116812
000150 7b 94 9d 3c 48 81 9e 3d 46 49 f3 3d 43 2d 33 3d
       0.01923584 0.07739502 0.1187921 0.043744337
000160 2a 6e c1 3d a8 44 5a 3d 04 82 5a 3d 5e ca 17 3e
       0.0944484 0.053288132 0.05334665 0.1482329
000170 79 7d ae 3c 65 f8 e7 3d d3 86 e8 3d 98 72 ea 3d
       0.021300064 0.11326674 0.11353841 0.11447638
000180 8c 59 9c 3d 4f b7 05 3d f6 61 0b 3d 49 10 ed 3d
       0.07634267 0.03264552 0.03402897 0.11575372
000190 21 94 e4 3d 78 91 6d 3c af 14 ed 3d d9 91 c5 bc
       0.11161066 0.0145000145 0.11576211 -0.024117397
0001a0 ae 6c cd 3c 06 e0 53 3c 78 40 91 3c e4 c9 29 bd
       0.025076237 0.012931829 0.017730936 -0.041452304
0001b0 28 ce b0 3d 23 4f e0 3c 8a 82 d8 bc 20 21 89 bd
       0.08633071 0.027381485 -0.026429433 -0.06695771
0001c0 bf b5 d7 3b 9e b7 0e 3b e9 88 7b 3d 34 81 99 bd
       0.006582945 0.0021776925 0.061409865 -0.07495347
0001d0 de 81 07 bd d0 f1 5a bc 0b c8 50 bc c5 df b4 bd
       -0.033082835 -0.013363317 -0.012743006 -0.08831743
0001e0 a7 f8 be 3a ed b4 61 3d cd f2 dc 3c 23 26 b5 3c
       0.0014569954 0.055104185 0.026971245 0.022112912
0001f0 0e 78 e9 3c 25 e4 4c 3d bc f8 1e 3d 85 d7 29 bd
       0.02849963 0.050022263 0.03881143 -0.0414653
000200 ed 9d b5 bb 74 0c 9d 3c 98 9c 26 bd e6 83 5a bd
       -0.005542508 0.019170977 -0.040676683 -0.053348444
000210 8e 19 54 3d 69 b2 f2 3b 55 89 89 3d af aa 6e bd
       0.051782183 0.007406522 0.06715647 -0.058268245
000220 ce 40 83 bd 02 ce c0 bc 95 b1 a2 3c 73 4e 91 3d
       -0.06408845 -0.023535732 0.019860068 0.07095041
000230 0c 33 88 3d ee 04 9e bb fd e9 8f 3d 40 2c 1e 3d
       0.066503614 -0.004822365 0.070270516 0.03861642
000240 be f1 9e 3c e7 97 d9 3c 2b 2e 24 3d 63 71 79 bd
       0.019402381 0.02656169 0.04008309 -0.06089915
000250 20 0c 6a 3a 58 eb c9 bd b2 0f cb bd 3b d1 bf bd
       0.00089281984 -0.098593414 -0.09915103 -0.093660794
000260 95 5c ea bd 7f d0 e7 bd 15 6b f4 3c 0a 4e 90 3c
       -0.1144344 -0.11319064 0.029836217 0.017615337
000270 49 5f f2 3b c0 d4 bd bd 7b ec 08 3c fd d6 43 bc
       0.007396613 -0.092690945 0.008357163 -0.011953113
000280 37 49 a7 bd c2 23 98 bb 58 ed 73 bd 7d b6 e4 bc
       -0.081682615 -0.0046429345 -0.05955252 -0.027919048
000290 4c 97 1d 3d fb e0 3e bd 27 47 86 3d eb 34 61 3d
       0.038474366 -0.046601277 0.0655654 0.054982107
0002a0 86 34 66 3b 4d 94 1f 3d ff 2b 92 bd a0 6d f0 3c
       0.0035126521 0.03895979 -0.07137298 0.029349148
0002b0 44 6b b6 3c 50 ec 18 3d 9d c6 1d 3c ca d3 2a bd
       0.022267945 0.03733474 0.009629873 -0.041705884
0002c0 a8 43 c1 3c 74 b9 15 bd 3c 50 b9 bb af e4 28 3d
       0.023591831 -0.036553815 -0.0056553166 0.041233715
0002d0 36 91 2b bc a0 5f 7c bd dc 24 79 bb 2a ed 61 bd
       -0.010471633 -0.061614633 -0.0038016355 -0.055157818
0002e0 ca 8d 1d 3d 4a 80 8a bd 68 8d 23 3d 82 43 8d bd
       0.0384653 -0.067627504 0.039929777 -0.06897642
0002f0 a2 66 00 bd 9d 37 5d 3c 72 cf c4 3c ea ff 28 bc
       -0.03134788 0.013502029 0.024024699 -0.010314921
000300 e4 9f 68 bd 63 8e 84 bd 13 24 73 bc 12 1e d1 bc
       -0.05679311 -0.064724706 -0.014840144 -0.025527034
000310 0d 26 9b bd d8 87 7f 3d fc 91 80 bd a1 55 24 bd
       -0.07575617 0.06238541 -0.06277844 -0.040120725
000320 57 af 89 3d 3d 02 d6 3c 5b 26 84 bd 95 79 ff 3c
       0.067228965 0.026124114 -0.06452628 0.031185905
000330 fb 17 75 bc c6 36 63 bd e8 40 43 3d 90 f8 5f 3d
       -0.014959331 -0.055472158 0.04766932 0.054680407
000340 b5 1d 60 bd 7d 37 28 bc e4 7e 46 3d 44 97 4f 3d
       -0.05471583 -0.010267136 0.048460856 0.050681368
000350 4a 49 83 bc 24 8b 06 bc 51 0d ae 3c 0d a4 cf 3c
       -0.016026158 -0.008211885 0.021246584 0.02534678
000360 90 27 61 3d 39 0a 08 3d ad 85 62 bb 30 9a 97 bc
       0.05496937 0.033212874 -0.003456454 -0.01850614
000370 3c 3f 1c 3d 69 9e 92 3b a7 62 4a 3c 7c 75 80 bd
       0.038146242 0.0044744504 0.012352622 -0.06272408
000380 69 cf f6 bc de 00 80 bd 98 ce 84 3d d3 2a 74 3d
       -0.030128198 -0.062501654 0.06484717 0.059611153
000390 e2 f5 49 3d bd b3 ba 3c 1f 6f 24 bd ce c6 47 bd
       0.049306758 0.022790784 -0.040145036 -0.04877358
0003a0 60 47 fd bc 8f 2d 72 bd d1 4c 66 3d 28 76 b0 3c
       -0.030917823 -0.05912548 0.0562256 0.021540716
0003b0 60 e5 41 bd 3f 7b 90 3a 78 62 98 bc 78 e5 8b bd
       -0.04733789 0.0011023058 -0.018601641 -0.06830877
0003c0 b8 9c ef ba 16 e9 f3 3c a5 c0 85 bd fe c4 1c 3d
       -0.0018280959 0.02977423 -0.06530885 0.038273804
0003d0 02 ea 54 3d 18 78 10 bd 89 75 dd 3c ef 45 6f bd
       0.05198098 -0.03527078 0.027033584 -0.058416303
0003e0 30 50 f4 3c 3f 43 cc 3c f4 ef 46 bd 7d c6 a3 bd
       0.029823393 0.02493441 -0.04856868 -0.07996843
0003f0 ca 72 1f bd fa 72 04 bd 7e 73 a6 bc 1f 12 9a bd
       -0.03892783 -0.032336213 -0.020318743 -0.075229876

fc1.bias f4 [256]
000000 f3 45 28 be 8d bd 35 3d a4 32 45 3e 33 73 af bd
       -0.16432934 0.044370223 0.19257599 -0.085668944
000010 c4 a8 f1 bd 3c 0d 6d bc a4 c0 55 3b e0 6c 30 bd
       -0.117997676 -0.014468487 0.0032616043 -0.04307258
000020 86 61 34 3e 38 26 1b be e0 07 01 be 9f cf 0c 3c
       0.17615327 -0.15151298 -0.1260066 0.008594423
000030 ce d2 c2 bd 56 96 9e 3c 7e 29 a2 3d 57 fe 84 be
       -0.09512864 0.019358795 0.0791807 -0.25975296
000040 50 65 ce 3d 64 45 cf bd 29 49 63 3e 3f 6e bf 3d
       0.100779176 -0.10120657 0.22195877 0.093472
000050 d2 3b 2e 3d 53 6d 87 3d e7 73 fb 3d 0c c6 80 3d
       0.042537518 0.06612649 0.12277966 0.062877744
000060 50 a7 91 39 cd bc 0b 3c 85 25 0f be 5b 9a ab bc
       0.00027781213 0.0085289 -0.13979156 -0.020947626
000070 33 c8 4d bd 9f 1f 4e bd a2 1e af bb 11 69 42 bc
       -0.050239753 -0.050323125 -0.005344228 -0.01186587
000080 10 5c 83 bd 62 fb b6 bd 37 59 a5 3d 57 c1 bd 3d
       -0.06414044 -0.08934666 0.08073657 0.09265392
000090 cb dd d0 bb 43 02 8a 3d 1f f2 8a be b2 f8 13 3d
       -0.006374096 0.06738713 -0.2713785 0.036125846
0000a0 e8 53 a9 3b 96 09 79 bc e2 84 07 be 0a a7 b8 bd
       0.005167473 -0.015200039 -0.13234285 -0.09016235
0000b0 01 29 31 bd 5c bf 5d bd 1e 91 bf bd d1 4d 9b 3e
       -0.043251995 -0.054137573 -0.09353851 0.30332807
0000c0 48 76 e2 3d 44 3d 8d bd f0 00 8a bd 41 23 b6 bd
       0.110577166 -0.06896451 -0.0673846 -0.08893443
0000d0 79 80 bc 3d 29 b4 3a 3d a0 9b 9e b8 06 2d 91 bd
       0.09204192 0.04558197 -7.5630145e-05 -0.07088666
0000e0 3f 0c f6 3b de 7f 5b bd 07 b1 3c bd ab 68 6a bc
       0.007508784 -0.05358874 -0.046067264 -0.014307181
0000f0 82 10 2a be a6 cb 86 3d fe ba e6 bb cb 8a 1e bd
       -0.1660786 0.065818116 -0.007041334 -0.038706582
000100 94 bd 90 bd 36 98 21 bc ea cb 32 bd 21 e3 46 bc
       -0.07067409 -0.00986295 -0.0436515 -0.012139113
000110 ab 75 8e 3d fe 03 4e 3d 10 a9 1e bd 53 90 ed bd
       0.06956037 0.050296776 -0.03873545 -0.11599793
000120 40 44 e1 bd c7 4c 21 bd f2 33 7e be 32 6e d9 3d
       -0.10999346 -0.03937986 -0.24824503 0.10616721
000130 d8 24 44 bd d2 d7 92 bc a4 73 10 3d 6b 81 ad bc
       -0.0478867 -0.017925177 0.035266533 -0.021179875
000140 01 0f 39 3d aa 39 b5 bd 05 b1 b8 3d 4d 35 68 3e
       0.045180324 -0.08848889 0.09018139 0.22676583
000150 07 47 8f bd 34 a4 66 bd 65 92 0d bc aa ef 3f 3e
       -0.06995969 -0.05630894 -0.00864086 0.18743768
000160 96 eb b6 bd 5f f3 18 bc c0 c6 44 3d 39 d1 27 3e
       -0.08931653 -0.009335368 0.048041105 0.16388406
000170 f4 c9 d1 bd a5 36 04 3e e7 1d 4c bd bd 3a 6a bd
       -0.102435976 0.1291147 -0.049833205 -0.057184923
000180 a6 40 b5 bc eb 16 7d bc 3b 0d 37 bd 6c 1b 5c bd
       -0.022125553 -0.015447359 -0.044690352 -0.05373709
000190 6a 46 b7 bd 61 e7 57 bc 85 d6 0f bd ec c9 f2 bd
       -0.08948977 -0.013177724 -0.03511669 -0.1185492
0001a0 bf 06 2a bd ed a3 89 be 1c 2e 75 bd 52 f4 18 3c
       -0.04151034 -0.26882878 -0.059858426 0.009335594
0001b0 1c 4d 6f be 6b f7 19 3e 9b c6 bd bd fe e4 ea 3b
       -0.23369259 0.15035789 -0.092663966 0.0071684113
0001c0 31 08 8a bc 86 62 93 bd 96 7e 1f 3d f3 90 49 be
       -0.01684961 -0.07196526 0.03893908 -0.196842
0001d0 b4 4a 87 3d 29 36 ec bd 9a ea 9f 3c dc f6 10 3d
       0.06606045 -0.11533768 0.019521046 0.035391673
0001e0 15 e7 8f bc 6d 1e d4 3c 88 93 77 be 90 0d bc bd
       -0.017566243 0.025893414 -0.24177372 -0.09182274
0001f0 cd 7c ad bd 50 a9 8c 3c 48 8b ed bc 91 d4 3a be
       -0.084710695 0.017170578 -0.028997079 -0.1824515
000200 5c 66 21 3e dc cd 76 be 5d fd b9 3c 05 ca ee bc
       0.15761703 -0.24101967 0.02270382 -0.029149065
000210 d1 4d 9a bd a7 0b a2 bd 70 04 7a bd b5 04 5f bd
       -0.075343736 -0.07912379 -0.06103939 -0.05444785
000220 69 5c 71 3d ae db 85 bd b3 24 ad bd 5f f2 07 bd
       0.05892602 -0.06536041 -0.084542654 -0.033190127
000230 8e 17 5f bd 37 77 0d be 08 ef d1 3c 1c 7a e0 3c
       -0.054465823 -0.13815008 0.025626674 0.027401976
000240 e9 ac a3 3c 2b 9a 0f bd 30 b9 cd bb 0f 48 58 3e
       0.01997991 -0.035059135 -0.0062781796 0.21121238
000250 db 4e 32 3e 00 f5 65 bc 7f 15 0f bd e0 bf 6f bd
       0.17412893 -0.014035463 -0.03493261 -0.058532596
000260 45 6e 0c 3e f0 fa 92 3d cf d3 e2 bd 62 ed e3 bc
       0.1371394 0.07176769 -0.110755555 -0.027823154
000270 ef 26 9b bd 7f d5 48 bd 01 49 47 3c d8 99 15 3d
       -0.07575785 -0.04903173 0.012163402 0.03652367
000280 5c 94 8b bd 0e eb 8d bd cf 9a 4c be a8 90 2e be
       -0.06815407 -0.06929599 -0.1998093 -0.1704737
000290 86 4e 45 bd 15 78 40 3d b5 ae a9 3c 41 4c 7c bd
       -0.04817059 0.04698952 0.02071319 -0.06159616
0002a0 44 74 31 3d 05 2c f0 bc 7a a0 03 be b0 3e 4e be
       0.04332377 -0.029317865 -0.12854186 -0.20141101
0002b0 ee 9e 98 bd b5 b9 8e be 98 ea 7a 3e fc cb 96 bd
       -0.074521884 -0.27876058 0.24503553 -0.07363126
0002c0 a1 fa 20 3e d5 26 b2 bc ff df b1 bd 8b 04 26 be
       0.15720607 -0.021747032 -0.08685302 -0.1621267
0002d0 26 41 3d 3d 5b 80 c4 bc c7 50 63 bd 60 1d 1b bd
       0.04620471 -0.023986986 -0.055496957 -0.03786981
0002e0 ea 08 22 3e c5 e2 4c bd 1c 47 b7 3d 75 87 b1 3c
       0.15823713 -0.05002095 0.0894911 0.021671036
0002f0 3c 76 b2 bc c0 e7 07 be 36 4d 01 bc 0d 0b 96 bd
       -0.021784894 -0.13272 -0.007891944 -0.073263265
000300 49 a0 24 be 08 9c 71 bd df 55 7d be 38 44 1b 3d
       -0.16076769 -0.058986694 -0.24739788 0.037906855
000310 a7 00 71 3d f7 d5 91 3d 92 15 a1 bd de 79 da 3c
       0.058838513 0.07120889 -0.07865442 0.026669439
000320 de 3d e3 bd 0d 45 bb bc d7 a2 81 bd b1 69 97 3d
       -0.110957846 -0.022860074 -0.06329887 0.07393206
000330 1f 72 4e bd 0a ef 28 bc dc f5 c6 bd 42 b7 76 3c
       -0.050401803 -0.010310898 -0.09714863 0.0150583405
000340 f1 64 7c be 5e 2b 5b 3c f1 49 fa 3c cf ae 0d 3d
       -0.24647881 0.013377039 0.030552836 0.03459054
000350 04 2f cf bd 84 ad 2e bc 6f c1 4b bc a3 91 ea 3d
       -0.101163894 -0.010661487 -0.012436255 0.11453559
000360 fc 55 8d 3e be 53 3c 3d b3 84 02 bd 03 66 22 bd
       0.27604663 0.0459783 -0.031864833 -0.039648067
000370 21 cb 40 3e 37 4c af bd 83 1c 5a 3c 3f bc 58 3d
       0.18827488 -0.08559459 0.013312462 0.0529139
000380 50 eb 79 3d 7e ff 17 bd ba 72 d8 bd f0 59 fb 3c
       0.061015427 -0.03710889 -0.10568757 0.030682534
000390 ed c9 b5 bc 37 13 37 bd a0 d7 59 bd 80 95 01 bd
       -0.022191012 -0.04469606 -0.05318415 -0.031636715
0003a0 ee 2b f3 bc db 30 15 bd aa 28 8c be f9 6a b9 bc
       -0.029684033 -0.036423545 -0.27374774 -0.022634016
0003b0 07 b2 19 bd d0 36 2f 3d 3a 5c b0 3d a4 75 8d 3c
       -0.037523296 0.042776883 0.08611341 0.01726801
0003c0 b0 94 f1 bc 98 33 97 bc c8 ed 24 3e e2 47 8b 3d
       -0.029489845 -0.018457219 0.16106331 0.0680082
0003d0 fb 03 13 3d 22 87 65 bd b6 c1 2d bd 61 17 93 bd
       0.035892468 -0.056037076 -0.042421065 -0.071821935
0003e0 dd 23 a6 3d fd 9d 40 bd b5 1f 9a bd 8a 73 85 3d
       0.08112309 -0.04702567 -0.07525579 0.06516178
0003f0 d0 02 90 bb fb 10 be bd 57 be 6e bd ad 7f 6f bd
       -0.0043948665 -0.092805825 -0.05828699 -0.05847137

fc2.weight f4 [2, 256]
000000 7e 4c 0d 3d 83 17 70 3d 04 56 84 3e e7 0b de bd
       0.034496777 0.058616173 0.25846875 -0.10842114
000010 ce 1a c8 3c 1f 2d c1 bc a9 63 21 3c ae 13 93 bd
       0.024426844 -0.023581086 0.009850421 -0.07181488
000020 95 d6 12 be e7 87 e6 3d b5 69 1a 3d 53 c5 e5 3c
       -0.14339669 0.1125639 0.037698466 0.028048193
000030 aa 85 92 37 00 bf b8 bc 1f 17 dc bd 2a 56 b2 3d
       1.7466798e-05 -0.022552013 -0.107465975 0.08707841
000040 d4 35 fd bd 5b 35 0d bc 12 ce eb bc 46 3c fe 3d
       -0.123637825 -0.008618678 -0.028784785 0.1241384
000050 3e a9 4f bd 16 37 48 3e 83 08 ce 3c 79 3a e0 bd
       -0.05069851 0.19552264 0.025150543 -0.10948653
000060 64 83 08 3e 38 df 2e bd ea 0a 60 3d d0 08 19 3d
       0.13331372 -0.042693347 0.05469791 0.03736192
000070 c2 7d 88 3c fa eb f8 ba 3b 4c 42 bd 37 17 c3 bd
       0.016661528 -0.0018991225 -0.04743598 -0.09525912
000080 f9 97 7e 3e 3f 92 cb 3d e6 7e 47 be fa 5d 04 bd
       0.2486266 0.099400036 -0.19482002 -0.032316186
000090 46 7e b2 bb 6e 70 d1 be 2e 0e 54 3d 44 d4 38 be
       -0.005447182 -0.4090609 0.051771335 -0.18049723
0000a0 a8 f4 c8 3d 35 33 c8 3b 95 38 85 3d a3 b6 1a 3d
       0.098122895 0.00610962 0.06504933 0.037771832
0000b0 6a 89 e2 bc 4e 05 85 bc 3d e7 e6 3c 36 1e 11 be
       -0.027653415 -0.016237881 0.028186435 -0.14171681
0000c0 06 82 05 be 19 54 cb 3d 03 6e f7 3c 29 ea d5 3c
       -0.13037881 0.0992815 0.030203825 0.026112633
0000d0 64 fe 83 bd 52 9c e6 bd 24 47 1a bd 32 bf 88 3d
       -0.064450055 -0.112602845 -0.0376655 0.066770926
0000e0 58 d2 c8 3c e6 f3 96 3d 82 13 e5 bb d7 f8 11 be
       0.024514362 0.07370739 -0.006990851 -0.14255081
0000f0 12 c1 b6 bd c2 96 e2 bd ce 12 74 be 94 fe 45 bd
       -0.08923544 -0.11063911 -0.23835298 -0.048338488
000100 24 95 10 3b 1b 0d 20 bd a3 74 08 3d a9 95 66 bb
       0.002206155 -0.039075 0.03331436 -0.003518442
000110 03 9a 24 be f4 00 85 bd 4e 7f 04 bd 60 d0 fe bc
       -0.16074376 -0.064943224 -0.03234797 -0.03110522
000120 b2 8a 1f bd 4b ad 29 be 53 a6 65 3d b8 d4 6d bc
       -0.03895063 -0.16570012 0.056066822 -0.014516048
000130 1a 17 0b bd 17 6b 68 bc 7a cc 4c 3d 23 26 f4 bc
       -0.03395758 -0.014185688 0.04999969 -0.029803341
000140 bb 99 c8 bc 44 62 ed 3c 2c e3 20 be 37 30 13 3e
       -0.024487367 0.02897752 -0.15711659 0.14373861
000150 ea 85 67 3d c4 76 a6 3c 2e a7 1d bd e3 42 21 3e
       0.056524195 0.020320304 -0.038489513 0.15748172
000160 0a a3 4f 3d 3b 49 08 3d 08 30 2d 3d 0c 2a bb bc
       0.050692596 0.033272963 0.042282134 -0.022847198
000170 a1 89 42 be eb 70 2d 3e f8 be 72 bd 6b de 81 3c
       -0.18997814 0.16937606 -0.059264153 0.015853127
000180 e4 54 1e 3d 44 f2 77 bd 6c c1 c2 3c bd a4 d1 bb
       0.038655177 -0.060533777 0.023773871 -0.006397812
000190 2a 7c 2e bd ee e7 74 bd 5f 05 8b bd 1c f0 ef 3d
       -0.04259888 -0.059791498 -0.06788134 0.11715719
0001a0 f7 19 eb bd 38 d3 a9 3d 54 4e 8b 3c b6 e3 91 3d
       -0.11479562 0.0829224 0.017005123 0.071235105
0001b0 79 7e 75 3d 2d 3d 54 be 15 cf b3 ba 6e 8d 09 3c
       0.059935067 -0.20726462 -0.0013718331 0.008395536
0001c0 41 10 07 3d dc e9 20 3c 24 cb aa ba c0 9d 13 3d
       0.032974485 0.009821381 -0.0013030511 0.036039114
0001d0 62 8c ff bd 2c 55 00 3d 46 53 c0 bc ef 47 50 be
       -0.12477948 0.031331226 -0.023477208 -0.2033994
0001e0 fe e5 b4 bb df 75 10 3d 4b 17 ef 3c c4 d6 ec bb
       -0.0055205813 0.03526866 0.029185912 -0.0072277505
0001f0 71 42 73 bc a6 b2 89 3c 59 e0 b5 3b 3d 69 a1 3d
       -0.014847384 0.016808819 0.005550426 0.07881401
000200 b2 07 9c be d3 9f a5 3d cd 96 9d bd e8 fa b0 3c
       -0.3047462 0.08087125 -0.076947786 0.021604016
000210 34 6b f5 bc c1 08 19 bb 68 af 4d 3c 2f 38 a7 3d
       -0.029958345 -0.0023351165 0.012554027 0.08165013
000220 be 9c 86 3d 70 a1 e7 3c f6 15 34 bd 9c 4b d3 3d
       0.06572865 0.028275222 -0.043966256 0.10317156
000230 07 08 47 bd a9 25 94 3e 0c c9 45 3c da 73 65 bd
       -0.04859164 0.28934982 0.012071859 -0.056018688
000240 17 c5 c5 bb 93 cd aa 3d c6 ef 0f bd 81 00 6b 3e
       -0.006035458 0.083399914 -0.035140775 0.22949411
000250 b1 9e 7c be a0 03 5a 3d 7f 75 b7 bc 45 6d e8 ba
       -0.24669911 0.053226113 -0.022394894 -0.001773276
000260 8f b4 22 be de 62 17 be 24 01 e6 bc 94 bb 00 bd
       -0.1588919 -0.14783809 -0.028076716 -0.03142889
000270 9a fd 89 bd ae b4 a5 3c 47 9e b6 3d 51 b5 9a bc
       -0.06737824 0.020227756 0.08916908 -0.018885287
000280 32 66 c9 3c 90 69 ac 3d 64 24 a4 3d 63 8f 1f 3d
       0.024584863 0.08418572 0.080147535 0.038955104
000290 52 a7 31 3d 2a c3 51 bd 4b a1 17 be 9d fe d2 3c
       0.04337246 -0.051211514 -0.14807622 0.025756175
0002a0 6a 9f fd 3c 60 72 d0 bd 99 b6 98 3d c4 93 5d 3d
       0.030959804 -0.10178065 0.07456703 0.054096
0002b0 40 74 37 bc 1a 42 ab 3d f5 b8 85 bd e0 c3 22 bd
       -0.01119715 0.08362217 -0.065294184 -0.039737582
0002c0 96 b0 66 be ce dc e4 3c b5 3e 4a 3c ee a5 3e 3d
       -0.225283 0.02793732 0.012344052 0.04654496
0002d0 89 1b f1 3c 4c 87 bb bc da 43 77 bd 1b 35 35 bd
       0.029432075 -0.022891663 -0.060367443 -0.0442401
0002e0 3d 19 43 bd d1 54 1e 3c f9 59 26 be 1a 9b fe bd
       -0.04763149 0.0096637765 -0.1624526 -0.12431927
0002f0 97 b8 1f 3d 3d 46 2b 3d 05 85 b3 3c 29 91 3e 3b
       0.038994398 0.04181503 0.021914015 0.0029078221
000300 71 6a 7e 3d 41 ac 94 bc 85 b0 42 3d 8d 57 4a bd
       0.06211323 -0.018148543 0.047531623 -0.0493999
000310 8e 89 8d bc 65 78 16 be 21 06 0a bc a3 02 38 be
       -0.017277505 -0.14694364 -0.008424313 -0.17969756
000320 0a d2 79 3d b8 56 0f be 38 8c 4d bd d6 50 a5 bd
       0.060991324 -0.13997924 -0.05018255 -0.08072059
000330 2d f6 a1 b9 2a 8a ef 3c 38 1f ff 37 26 69 76 bc
       -0.00030891728 0.029240686 3.0412906e-05 -0.015039718
000340 04 67 95 3d 4a af a9 3c 6f ff a6 3c 7a 0b b1 3c
       0.07295039 0.020713467 0.020385472 0.021611918
000350 97 cf 67 bd ad 2b 46 3d 05 82 06 bd 3c 86 a2 be
       -0.056594457 0.048381496 -0.03283884 -0.31743038
000360 0e a5 fb bd 2b a2 33 bb 7f e0 8b bd d0 51 b2 3b
       -0.12287341 -0.0027409892 -0.068299286 0.0054418817
000370 43 55 5c 3e ce 1e d7 3c 23 2b aa 3b 3b 9d a5 3b
       0.215169 0.026259806 0.0051931306 0.0050541437
000380 77 6b dd bd 86 e9 97 3d 87 7f 8f 3d 6a c4 1d 3d
       -0.10811513 0.07417588 0.07006746 0.038517393
000390 0b dc 3c 3d fb de b5 3c ae 6b 4e bd 89 89 92 3d
       0.046108287 0.022201052 -0.05039566 0.07155139
0003a0 7c 67 c1 bc 5a f6 48 be 4b 49 b7 3d 6b 0e 08 bc
       -0.023608916 -0.19625226 0.089495264 -0.008304219
0003b0 55 75 96 3c d3 ff 3e bc 63 ed 37 be 4c 4a 7e 3c
       0.018366495 -0.011657673 -0.1796165 0.015520643
0003c0 b6 0b 61 3d 0b 67 ac bd 55 02 65 3e 9b f6 51 be
       0.05494281 -0.084180914 0.22364171 -0.20504229
0003d0 96 5c 80 bc f1 e2 c8 3d 40 0a e2 3c 50 57 3e 3d
       -0.015669148 0.09808911 0.027592778 0.046469986
0003e0 8d 83 22 be 13 04 e8 3d 63 69 41 bd ef 42 91 3d
       -0.15870495 0.11328902 -0.047219645 0.07092845
0003f0 88 fe 29 3d 31 d1 c5 3c 9c d0 a8 3b 4c ce d6 3d
       0.041502506 0.024147602 0.0051518213 0.10488567

fc2.bias f4 [2]
000000 85 fa 0f be 5a cd f2 bd
       -0.1406041 -0.11855574
